models/versions/model_2025-03-27_00:40:37.pt (torch, 47253 bytes, 22 tensors)

embed.0.weight f4 [8, 4]
000000 f9 38 85 bf 92 a6 6a 3f b8 ef a6 bf f1 09 8e bf
       -1.0408012 0.91660416 -1.3041906 -1.1096784
000010 bc 9a 82 bf d2 af ab 3f 9f 2b 6c bf 8c 9c 45 be
       -1.0203471 1.3413031 -0.9225406 -0.19297999
000020 89 ad 5a bf c1 c2 b0 3e 16 b0 0f bf 62 bd 5f be
       -0.85421044 0.34523585 -0.5612806 -0.21849588
000030 cb 25 7b 3f ed db 35 bf d2 9c 4e be 0c 25 d9 be
       0.9810454 -0.71038705 -0.2017701 -0.42411077
000040 e8 04 d1 bf ca b6 18 bf e1 c9 7d bf f8 e4 ee 3e
       -1.6329622 -0.59653914 -0.9913617 0.46659064
000050 1f f1 26 bd 5c b2 81 bd f0 8f 84 3f 5c 91 55 3f
       -0.040757295 -0.063328475 1.0356426 0.83424926
000060 c6 94 1d 3f a3 7b d1 be 00 dd 84 3e 1b cd 3b 40
       0.61555135 -0.4091464 0.2594986 2.9343936
000070 78 e6 24 3e 31 df 8f 3f 58 92 bb 3e 52 00 db 3f
       0.16103542 1.1239988 0.3663509 1.7109473

embed.1.weight f4 [3, 1]
000000 20 3c 1e 3f b2 c3 70 be 4d 87 cd 3c
       0.61810493 -0.23512152 0.02508893

embed.2.weight f4 [15, 7]
000000 7a c7 5d bf a9 00 88 be c7 8a 2a 3e 69 85 4a 3f
       -0.866325 -0.26563004 0.16654502 0.7910982
000010 73 23 5b 3f f9 a0 d1 3e 0f 8b 91 bf c7 5b 99 bf
       0.85600966 0.40943125 -1.1370562 -1.1981133
000020 28 66 94 be 12 e3 9c bd d3 09 c7 bf 88 a8 a5 bf
       -0.2898419 -0.07660498 -1.5549873 -1.2942057
000030 6f fa 83 bf b5 cb cc bf 65 02 8a 3f eb 53 16 3e
       -1.0310801 -1.5999666 1.0781981 0.1468045
000040 7f 04 75 3f f6 25 dd bf a9 07 22 bf 9a ba 20 40
       0.95709985 -1.727721 -0.6329294 2.5113893
000050 03 4b 63 bf 65 eb 49 bc 9a d1 b1 3f c9 e9 23 40
       -0.88786334 -0.012324189 1.389209 2.561144
000060 80 84 b2 be bf 55 b1 3d 7e e9 8b bf 86 83 f9 3e
       -0.34866714 0.08658933 -1.0930631 0.48733157
000070 6d 1c b5 3f ba 24 d3 be 5f ef c8 3e 14 e7 8b bf
       1.41493 -0.41238958 0.39245126 -1.0929894
000080 15 5d 09 3f e3 4f af bf 20 eb 93 3f b8 cd 77 bf
       0.53657657 -1.3696254 1.155613 -0.96798277
000090 81 d1 80 be f1 74 61 bd 78 e9 75 bf 9e 68 09 be
       -0.2515984 -0.055043165 -0.9605937 -0.13418815
0000a0 0c a7 86 be 47 40 0e 3f 44 4d ed 3c 18 8c 69 bf
       -0.26299322 0.5556683 0.028967507 -0.9122939
0000b0 19 ed 9c bf 5d 0a 7f 3e ea 87 92 3e fd 58 1d bf
       -1.2259856 0.24906297 0.2861932 -0.6146391
0000c0 79 42 04 3f 5a ef 85 3e 70 70 17 3f 5a 83 92 be
       0.5166393 0.26159173 0.5915594 -0.28615838
0000d0 ab 8e 3b bf eb bc 88 bf 07 13 e3 3f 39 48 ca be
       -0.7326457 -1.0682653 1.7740182 -0.39508227
0000e0 be 8d e1 3e 16 7b 29 3f 41 a1 65 3f 03 d9 f2 3e
       0.44053453 0.6620344 0.8969918 0.47431192
0000f0 73 d8 d3 3f 13 9d 19 3f af fc 2f 3e 3f ad d4 bf
       1.655043 0.600053 0.17186235 -1.661537
000100 71 05 96 be 8b f0 b6 bf f6 6c 29 3f fb d4 d8 bf
       -0.29301026 -1.4292158 0.66181886 -1.6939996
000110 95 21 cd bd a1 df 99 3f 2b 8e 22 c0 33 0a c4 3d
       -0.10016171 1.2021371 -2.5399272 0.09572258
000120 dc bc da 3f 29 29 78 3e 03 6f da 3f 41 03 93 3f
       1.7088885 0.24234451 1.7065128 1.1485368
000130 a9 7e 16 3d c8 70 de be 0b 71 01 3f 8b f9 01 bf
       0.036741886 -0.4344542 0.50563115 -0.507714
000140 5f b7 fb 3f c1 ef b9 3f 08 e0 4a 3e 3e e5 8d bf
       1.9665335 1.4526292 0.19812024 -1.1085584
000150 2f 59 02 bf e5 b9 06 3f 04 6b 9a be b7 58 ea 3c
       -0.50917333 0.526274 -0.3015977 0.028606756
000160 b3 76 41 3e f5 5e f9 bf 0c 1f 12 be 41 45 dd 3f
       0.18892936 -1.9482104 -0.14269656 1.728676
000170 5c a2 0d 40 44 79 2b bf 88 8f a6 3f 7d ab ef be
       2.2130346 -0.6698191 1.3012552 -0.46810523
000180 ab 09 40 3e 36 5e 3f 3d 5e 73 85 3e cd dc 59 3f
       0.18753688 0.046720706 0.2606458 0.8510254
000190 4b b7 20 40 21 7e 4a bd 25 9b a3 be b8 d4 72 bf
       2.5111873 -0.049436692 -0.31954303 -0.94855833
0001a0 cb d8 ae 3e
       0.34149775

embed.3.weight f4 [15, 7]
000000 1a 8b c2 3f cd e3 87 3e 36 98 13 be d7 6a 0a 3f
       1.51987 0.26540986 -0.14413533 0.54069275
000010 58 19 c6 bf cd 40 25 3f f1 ae 91 bf df 9a 31 3f
       -1.5476484 0.64552003 -1.1381513 0.6937694
000020 c7 c5 97 3f f7 89 9a 3f 4c 4a 37 bd 23 4b 89 bf
       1.1857232 1.2073354 -0.04474859 -1.0726055
000030 3b 60 82 3f b5 a3 42 3e ff 2a 1d 3d 32 a2 95 3e
       1.0185617 0.19007762 0.038371082 0.29225308
000040 01 1d a1 3e db 34 65 bf 3c 2f 21 bf 04 66 1f 3f
       0.3146744 -0.89533776 -0.629627 0.6226504
000050 a5 06 2a be 44 e8 11 bf 65 9d a1 3f 73 c2 e4 3d
       -0.16604097 -0.56995034 1.2626158 0.11169901
000060 1b b8 95 3f 67 e4 e5 3f 91 a2 b7 bf cb 5f 5c be
       1.169681 1.7960328 -1.4346486 -0.21520917
000070 60 0f 7b bf d4 43 b6 bf d6 93 22 3f 4f 65 60 be
       -0.98070335 -1.423945 0.6350683 -0.21913646
000080 d7 b8 11 3f 8f d7 6b be 8c 5f 33 3f b4 a6 ad bf
       0.5692267 -0.23031448 0.7006767 -1.3566499
000090 4d 6e 88 3e 6b ba 19 bf b7 a7 8c bf a1 17 0e bf
       0.26646653 -0.60050076 -1.0988683 -0.55504805
0000a0 9a 28 b2 3f 4c 06 5b 3f 34 5d a7 3e 6b bf ef 3e
       1.3918641 0.85556483 0.32688296 0.46825728
0000b0 5c 6c 25 bf f2 58 b5 bf e2 f0 e1 3f d8 fc 67 3e
       -0.6461847 -1.4167769 1.7651637 0.22655046
0000c0 97 f4 e3 be 5b 01 95 be ee d1 67 3f c4 11 9a bf
       -0.44522545 -0.29102597 0.905547 -1.2036672
0000d0 e4 82 ca 3e 28 23 01 3f b7 e6 69 3f 90 94 9f bf
       0.39552987 0.5044427 0.9136767 -1.2467213
0000e0 c8 11 2f 3f fb 15 9c be 78 7c 7d be d4 9d 4c be
       0.6838651 -0.3048552 -0.24754512 -0.19982082
0000f0 f1 c3 1a 3f 6c 4d cb bd a9 dd 8e bf 94 1f c9 3e
       0.6045523 -0.099268764 -1.1161395 0.39281905
000100 98 ee 48 bf 0c a5 57 3d bb b0 14 c0 55 45 8b bf
       -0.78489065 0.052647635 -2.3232868 -1.0880533
000110 02 d3 bb be f3 e8 16 bd 99 cf 90 bd 67 9a e4 bd
       -0.36684424 -0.03684325 -0.07070846 -0.111622624
000120 24 b9 06 3e f4 ac 50 3f d0 1a 4f 3e 9a 1b a6 3f
       0.13156563 0.81513906 0.20225072 1.2977173
000130 61 77 26 3f 8c b1 9a 3f 3a f5 ad 3f 89 15 b5 3f
       0.6502591 1.2085433 1.3590462 1.4147197
000140 b4 ba 1b 3f 4a 87 6d 3e fc 51 5a be c3 3f d0 bf
       0.6083176 0.2319614 -0.21320337 -1.6269459
000150 a5 6b ba 3f c4 4b a1 3f c4 57 9e 3e 8e 23 45 bf
       1.45641 1.2601247 0.30926335 -0.7700738
000160 79 84 b4 3f 73 28 e4 3e 8e 03 5b 3e f4 01 c1 bf
       1.4102927 0.4456211 0.21388075 -1.5078721
000170 f1 c8 9d bf 85 f1 a4 bf 4b ee a2 3e 89 fd b2 be
       -1.2326947 -1.2886206 0.31822428 -0.34959057
000180 de 7d 73 bf ae 64 1d 3e 27 4c d8 3e ad 15 dd bd
       -0.95113933 0.15370438 0.422456 -0.1079515
000190 c7 d6 8c 3f 06 e2 32 3f 00 72 b1 bf dd 3a 60 bf
       1.1003045 0.69876134 -1.3862915 -0.8758982
0001a0 77 54 3a 3f
       0.72785133

embed.4.weight f4 [16, 8]
000000 cd a7 d6 3e 16 8f 02 bf 85 7f d6 bf f9 d3 fc bd
       0.41924897 -0.5099958 -1.6757666 -0.12345118
000010 8c be ba 3f fe 0c 6c 3f 82 ff 8c 3e 19 36 d6 bc
       1.45894 0.92207325 0.27538687 -0.026148843
000020 ee 89 44 3f cc 5f 2e be 65 47 21 be 3d 10 02 3f
       0.76772964 -0.17028731 -0.15749891 0.5080603
000030 89 ee 99 3c 09 ff d2 3e e0 1c 05 c0 91 f8 1a bf
       0.0187905 0.412102 -2.0798874 -0.6053553
000040 0c f7 7d 3f 09 54 79 3f 2a d8 3a bf 10 a4 1c 3e
       0.9920509 0.9739385 -0.7298609 0.1529696
000050 b3 61 29 3f 15 dd 30 3f fd 04 2f 3f de 0e 3c bf
       0.661647 0.69087344 0.68366987 -0.73460186
000060 bc 28 df bd c4 3b 8c 3f 21 f9 45 3f 6e e6 04 bf
       -0.10896441 1.0955739 0.77333266 -0.5191411
000070 37 32 de bf 26 c0 32 3f e5 56 4e 3f 3d f3 3b c0
       -1.7359074 0.69824445 0.8060134 -2.936721
000080 d0 95 53 be 9f b9 89 bf 74 3f a5 be 93 2d 2c 3f
       -0.20662618 -1.0759772 -0.32274973 0.6725704
000090 fe e6 6d bf af b1 32 bf 39 2f 5e bf 0c 75 24 3f
       -0.9293059 -0.69802374 -0.86790806 0.642411
0000a0 1d 7e 0d bf f6 58 d4 bf 1e ff ac be b1 e0 15 3e
       -0.5527056 -1.6589649 -0.3378839 0.14636494
0000b0 0d 30 a4 3f 7f 7a c2 3f ca 09 e2 bc 5c d5 60 be
       1.2827164 1.5193633 -0.027592558 -0.2195639
0000c0 8f 01 53 3e 99 2a 8b bf c9 19 bb 3f 1b b1 d2 3f
       0.20606063 -1.0872375 1.4617244 1.6460298
0000d0 19 30 d2 bd c4 c6 50 3f 7c 72 af 3f 87 5b 02 3c
       -0.1026308 0.8155329 1.3706813 0.007956392
0000e0 37 bd 01 bf d8 5c 0b 3f 24 b6 f4 be 7d d2 36 3f
       -0.50679344 0.54438543 -0.47795212 0.7141493
0000f0 a8 c4 e9 bc 3a 1d 68 bf 90 48 cd bf d4 58 1e 3f
       -0.028536156 -0.90669596 -1.6037769 0.6185429
000100 62 6e cb 3e 3f 01 cd 3d 45 49 3c be e6 4b fd 3e
       0.39732653 0.10010003 -0.18387325 0.49471968
000110 4c ba 24 3f 7c fc 08 bc b1 41 b9 3e 17 f8 80 3f
       0.64346766 -0.008360978 0.3618293 1.0075711
000120 5c b9 2a be 46 34 a0 bf 35 38 3e bf c4 f5 e9 3f
       -0.16672271 -1.2515953 -0.74304515 1.8278127
000130 a1 59 d1 be b9 96 ab 3f dc 40 92 bd cc 43 19 3f
       -0.40888694 1.3405372 -0.07141277 0.59869075
000140 95 e4 ef bd 44 89 a8 3e a5 d2 05 3f 9a 37 cf bf
       -0.117135204 0.32917225 0.52274543 -1.6188843
000150 b2 fa 53 3e ba dc 0b be ac 85 84 3e 4e 54 80 3e
       0.20701101 -0.13658419 0.25883234 0.2506432
000160 ff 3c 3f 3f cc bd 6a 3f 2a ad a0 bf c2 f3 49 bf
       0.7470245 0.9169586 -1.2552845 -0.7888757
000170 39 95 b3 3f 6d a4 65 bf 83 cd d0 3e ae 67 66 3f
       1.4029914 -0.8970402 0.40781793 0.9000195
000180 f7 77 8e bf ef f2 95 3f 15 df b8 bf 8e 34 9d be
       -1.113036 1.1714762 -1.4443079 -0.3070416
000190 2c a0 fb be 44 3a 18 3f d2 47 8c 3f 6e 8c 9a bf
       -0.4914564 0.59463906 1.0959418 -1.2074106
0001a0 7b 7f c0 bd 8d 3f c3 3f 33 37 6a 3f 3e ae c8 3e
       -0.09399315 1.5253769 0.9149048 0.39195436
0001b0 49 a7 a7 3e 70 98 b3 bf bc 11 59 3e a4 45 d0 be
       0.32744816 -1.4030895 0.21198171 -0.40678132
0001c0 5e 2a 35 c0 d4 ba 96 3e 3e 55 be 3f eb 70 41 3e
       -2.830711 0.29439414 1.4869764 0.18890731
0001d0 b7 1c 1a 3f 88 ec d5 3f d9 ab 58 3f cb 60 a0 bf
       0.60200065 1.6712809 0.8463722 -1.2529539
0001e0 a7 c7 8a bf 52 06 13 bd f5 0f 26 3e 7d ca 51 c0
       -1.0842179 -0.0358947 0.16217025 -3.277984
0001f0 aa 7c d0 3f 65 18 06 3f a9 db 32 be 9e db 6e bf
       1.6288044 0.52380973 -0.17466606 -0.9330386

embed.5.weight f4 [6, 3]
000000 4f 69 15 3f c7 b5 bd bd 00 e5 99 be 0b 03 21 40
       0.58363813 -0.09263187 -0.30057526 2.5158107
000010 98 7c 85 3e 33 ad 11 40 b8 0e ff be 1e 7f 65 bf
       0.2607162 2.2761962 -0.49815917 -0.8964709
000020 7b a3 c3 be ee e0 10 3f ce 01 71 bf 4b 96 6e 3f
       -0.38210663 0.56593215 -0.9414338 0.9319808
000030 ce a1 2e 3e 18 7e 18 3e 2e b7 ef 3f a6 66 05 3f
       0.17053911 0.14891851 1.8727777 0.52109754
000040 bb 8d 58 bf 8c fa 05 c0
       -0.84591264 -2.0934172

embed.6.weight f4 [3, 1]
000000 75 82 fb be 54 f5 61 bf 88 35 d0 3e
       -0.49122968 -0.88264966 0.4066584

embed.7.weight f4 [7, 3]
000000 bb 8b 89 be 4f 11 15 bf 05 52 8a 3d 79 21 b8 3f
       -0.26864418 -0.58229536 0.06753925 1.4385215
000010 2d 73 7d bf a3 83 71 bf f8 2a d4 3e f6 6f a3 bf
       -0.9900387 -0.94341487 0.41439033 -1.2768543
000020 12 db e8 bf 9f 6a ae 3e 01 10 1e bf d7 52 33 3f
       -1.8191855 0.3406572 -0.6174317 0.7004828
000030 1d bc 99 3e 61 4b 54 3f e0 66 b2 be 6f 5d f3 be
       0.30026332 0.8292752 -0.34844112 -0.47532222
000040 e2 9c 96 3e 2a b3 3b be 75 33 7d bf 79 7a 3b bf
       0.29416567 -0.18330064 -0.9890664 -0.73233753
000050 f1 1d 9c 3e
       0.30491593

embed.8.weight f4 [3, 1]
000000 ed d8 99 3f 22 e9 bc 3f 28 a7 44 bf
       1.2019325 1.4758646 -0.7681756

layers.0.weight f4 [100, 35]
000000 21 65 1c be b5 6b 44 be fe da 2a be a8 87 7c bd
       -0.15272953 -0.19181712 -0.16685101 -0.06165281
000010 5e c3 1d be cc 19 f6 bd b7 a6 5f bd 13 9d a2 3d
       -0.15406558 -0.12016639 -0.05460235 0.07940116
000020 ed cb 12 3e 34 e4 c0 3d 0f 61 90 bc 85 53 e2 bd
       0.14335604 0.09418526 -0.017624406 -0.11051086
000030 ac 23 79 3d 0d fc df bd 29 79 0e be 1a a5 92 bd
       0.060825035 -0.10936747 -0.13913406 -0.07160397
000040 c2 95 fe 3d 24 31 eb 3d c8 75 03 be 00 53 1a 3e
       0.12430908 0.11483982 -0.12837899 0.15070724
000050 c9 05 1a be f9 fe a1 bd e3 52 f0 bd 6b 5f c6 3d
       -0.1504127 -0.0790996 -0.117345594 0.09686168
000060 77 c2 49 3e 83 4a 0f 3e 3f c6 28 3c 07 2a 3c bd
       0.19703089 0.13993268 0.010301172 -0.045938518
000070 cb 77 86 3d 61 01 1b bd 65 63 19 be 6f e4 86 bd
       0.065658174 -0.037843112 -0.14979322 -0.06586539
000080 cf 67 1f 3e 6c 24 1c be 09 33 50 be 14 97 3c 3e
       0.15566944 -0.15248269 -0.20331968 0.18417007
000090 f5 a7 3b be 00 37 62 3d 95 22 39 3e 7b a5 6a 3d
       -0.1832579 0.055228233 0.18079598 0.05728672
0000a0 d9 2f f2 bc cc 3e 61 3d 8c 96 1a 3e c8 51 d0 bd
       -0.029563831 0.05499153 0.15096492 -0.101718485
0000b0 aa 43 aa 3d fe 59 40 bd 2b 50 c2 bd a1 04 12 bd
       0.08313687 -0.046960823 -0.09487947 -0.035648946
0000c0 04 cd 9a 3d 73 20 03 be a5 e0 4d bc 34 97 45 bd
       0.07558635 -0.12805347 -0.012565766 -0.0482399
0000d0 41 d0 a6 3d 2b b5 aa 3d 5e 12 bc 3d 2f 04 51 3e
       0.0814519 0.08335336 0.09183191 0.20411752
0000e0 d7 9a 05 3e 16 20 f7 bd 06 4d 37 3d 10 cb 91 3d
       0.13047348 -0.12066667 0.04475119 0.07118809
0000f0 75 2b ee 3d bc 4a f6 bd b1 6b 6f bc 0f a3 d0 3d
       0.116293825 -0.12025973 -0.014613078 0.10187351
000100 9c 9c 49 3d 97 16 5e bc a0 9a 70 bb 09 1c 0b 3d
       0.04922162 -0.0135551905 -0.0036713257 0.033962283
000110 df 21 44 bd e7 f3 e7 3d 25 68 d8 bd 65 44 0f be
       -0.047883864 0.113258176 -0.10566739 -0.13990934
000120 d4 80 20 3d e0 81 6a 3d 98 36 2c 3d 96 14 df bd
       0.03918536 0.057252765 0.042044252 -0.10892598
000130 dc 07 37 3d c0 ce fc bd d2 2b 3f 3d 7a 37 cf 3d
       0.04468523 -0.12344122 0.04667265 0.10118003
000140 d8 cd dd bd 14 0c 77 3d 63 44 e1 3d c6 9f fb bc
       -0.10830277 0.060314253 0.10999372 -0.030715834
000150 08 b2 9d 3d b8 3a e7 bd 9e 3a 4e 3d 38 95 3b 3d
       0.076999724 -0.112904966 0.05034887 0.045796603
000160 50 d7 c2 3c e7 a4 b4 bd ce fc 94 3c da 15 c4 3d
       0.02378431 -0.08820515 0.018186953 0.0957448
000170 26 1d 02 be 76 68 8b 3d bf fa 98 bd a3 01 c1 bd
       -0.12706432 0.06807034 -0.07469701 -0.0942414
000180 e8 c3 02 be 0e c3 c1 3d 7e e9 dc 3d 85 b6 18 be
       -0.12770045 0.09461032 0.107867226 -0.14913376
000190 27 38 f8 3d 7e 93 a2 3d ce 37 9f 3c c9 e7 01 3e
       0.12120085 0.07938288 0.01943579 0.12686075
0001a0 7e 30 49 3d 1c 06 1f 3c 96 81 82 3d 23 79 24 bd
       0.04911851 0.009706046 0.06372373 -0.040154587
0001b0 ba e0 2b 3e 88 9f ad bc 91 dc 16 3e bc ce 8e 3c
       0.16784945 -0.021194234 0.14732577 0.017432563
0001c0 20 9d 83 bd 5c cf 00 bd 9f 06 21 be 05 08 95 bd
       -0.064264536 -0.031447753 -0.15725182 -0.0727692
0001d0 f6 06 e3 3c 98 3e 28 be 39 7e 01 be e0 6a 0d 3d
       0.02771328 -0.16430128 -0.12645806 0.034525752
0001e0 cb 23 54 3d b6 18 64 bd 2d 40 2e 3e f5 bd 41 bd
       0.051791947 -0.05568763 0.17016669 -0.047300298
0001f0 a2 24 b5 bd f2 dd 45 3d 6b ef 89 3d f2 2c ac bd
       -0.08844878 0.048307367 0.067351185 -0.0840701
000200 47 8d 43 3d 23 89 31 3d c0 9b 96 3d f8 67 0e 3d
       0.047742154 0.043343674 0.07353926 0.03476712
000210 98 8d 17 be 79 6a 15 be 93 da 14 3e 39 4a c0 3d
       -0.14800107 -0.14591397 0.14536504 0.09389157
000220 14 8b 16 3e ec 91 c9 3d 4c 3a 71 3d d3 35 3d bd
       0.14701492 0.098422855 0.058893487 -0.04619391
000230 46 4d 59 3d 9e 88 0f 3e 63 85 a5 bd 07 43 ab 3c
       0.05305221 0.14016959 -0.08082082 0.020905985
000240 db 3c 36 be 33 9e 90 3d 1b 17 f2 bc 18 56 a5 bd
       -0.17796652 0.07061424 -0.029552033 -0.08073062
000250 63 6d 8e 3d 93 14 13 bd 0b 97 bc bd d2 4e 30 3c
       0.069544576 -0.035908293 -0.09208497 0.01076098
000260 b3 79 b3 bd 7d 30 30 3c 63 cf 91 3d 9e e9 80 3c
       -0.08763447 0.010753748 0.07119634 0.015736397
000270 59 4d c3 3b 8d 25 00 bb 18 bf f7 3d fc 17 1f 3e
       0.0059601483 -0.0019553632 0.12096995 0.15536493
000280 ab f8 17 bc 14 c3 1e be c2 cc bc 3d 20 95 bc 3d
       -0.009275596 -0.15504104 0.09218742 0.09208131
000290 e8 52 b5 3d 98 aa c7 bd 02 f7 78 3d 82 16 0b 3e
       0.08853704 -0.09749335 0.06078244 0.13582805
0002a0 db 0a 0a 3e f4 16 0c be bc 16 eb 3b 07 d2 20 be
       0.13480704 -0.13680631 0.007174341 -0.15705119
0002b0 2c 07 34 be a1 3b b8 bd b3 21 6b 3d 70 5f 9d 3d
       -0.17580861 -0.08995748 0.057405185 0.07684219
0002c0 88 65 20 be 20 f4 3f bd d0 5d 97 3d 6e 06 ac 3d
       -0.15663731 -0.046863675 0.0739094 0.08399664
0002d0 82 bf 80 3d 4c 3b 04 3e c7 35 ce 3d 6a ae bd bd
       0.06286527 0.12913245 0.10068851 -0.092617825
0002e0 fc f5 9e 3d 4d 1f 53 3c 86 f3 01 be f1 d2 c2 3d
       0.077617615 0.012885881 -0.12690553 0.0951289
0002f0 ed b2 b1 3d 97 dd b3 bd fa dd 51 3b cf 4d ad 3d
       0.086767055 -0.08782499 0.0032023177 0.084621064
000300 b6 bb 9b 3c 19 8f 35 3e 84 79 fe bd 83 12 95 bd
       0.019010406 0.17730369 -0.12425521 -0.072789215
000310 70 61 39 be 31 69 4e 3e ed 98 d2 bd a7 aa fc 3d
       -0.18103576 0.20157315 -0.102830745 0.12337237
000320 d7 18 f5 3d 6d 8e 4a bd d4 be 8a bd 6a 67 18 3e
       0.119676284 -0.049452234 -0.06774679 0.148832
000330 95 30 2e 3e f9 20 ba bc 2a 07 4e bc 4e 2a 34 3e
       0.1701072 -0.0227208 -0.01257495 0.17594263
000340 d5 d3 a8 ba 65 e3 bb bd b4 01 a8 3d 84 21 11 be
       -0.0012880514 -0.091742314 0.0820345 -0.14172941
000350 a1 b7 86 3d 6a 30 0a be cc d1 d2 3b b7 c3 20 bd
       0.06577993 -0.13495031 0.006433701 -0.03924915
000360 b6 00 a4 bd 56 9e 9a bd c8 40 44 3d 91 e1 54 3d
       -0.08007948 -0.075497314 0.047913343 0.05197293
000370 41 40 04 be ec 33 34 3e f9 80 c2 3d ce 6d 1f be
       -0.12915136 0.17597932 0.09497256 -0.15569231
000380 88 40 27 3e 91 fb 9a bc 6b 47 c3 bd 31 e8 82 3d
       0.1633321 -0.018918784 -0.09535106 0.06391943
000390 da 31 14 3d 4c c4 88 bd 8f 2f 85 3d ed 0d 9a 3d
       0.036180355 -0.06678066 0.06503212 0.075221874
0003a0 50 64 a4 3d 05 6e 03 be dd 1c 1b be 6b 31 b7 bc
       0.080269456 -0.12834938 -0.15147729 -0.022362432
0003b0 ab 1e 26 be d2 8c 7d 3c e7 36 15 be 6e 32 25 bc
       -0.16222636 0.015475469 -0.14571725 -0.010082824
0003c0 da f0 11 3e e3 78 12 be c6 8f 56 bd dc be 85 3d
       0.14252034 -0.14303927 -0.052383207 0.06530544
0003d0 1d 21 f0 bd 87 a5 2f be a5 32 84 bd b4 5e 78 3d
       -0.11725066 -0.17152987 -0.06454972 0.06063719
0003e0 21 1e fe 3c 87 ee c3 bd 49 7f f1 bc a0 73 05 bd
       0.031020226 -0.0956698 -0.02947964 -0.03258097
0003f0 e7 e2 21 be 24 8a 30 bb 5d ba 41 bc 41 9c 10 be
       -0.15809213 -0.0026937807 -0.011824218 -0.14122106

layers.0.bias f4 [100]
000000 22 d4 99 3d 52 63 65 3d d7 59 27 3e d7 a0 50 bb
       0.07511164 0.056002922 0.16342865 -0.003183415
000010 3e 99 ca 3d 4f cc c4 bb 97 e6 05 3e 19 80 b9 bd
       0.0989251 -0.006005801 0.13076244 -0.09057636
000020 34 9a a6 3d 01 e8 9c bd a7 12 03 bb 8f 01 60 bd
       0.08134881 -0.07661439 -0.0020000131 -0.054688986
000030 49 94 a4 bc c2 d0 c3 bd 45 38 18 be 19 01 7b 3d
       -0.02009024 -0.09561302 -0.14865215 0.061280344
000040 01 b5 bf 3c a4 f5 f0 3b 84 00 a9 bd 8b 5b 02 3e
       0.02340174 0.0073535014 -0.082520515 0.12730233
000050 db ee 13 3e 37 14 37 bd 3e 3c 13 be 28 2a 81 3d
       0.14446585 -0.044697013 -0.1437845 0.06306869
000060 28 ad 13 be 11 a1 94 3d f6 2b ed bd d7 fe da bd
       -0.14421523 0.072572835 -0.115806505 -0.10693138
000070 05 ec a7 bd 9e 9b c8 3d 74 98 59 3d 62 b8 c7 3c
       -0.08199314 0.097953066 0.053123906 0.024379913
000080 dc 1c 33 3e 94 9e 26 bd 56 59 a8 3d 44 89 c8 3d
       0.17491478 -0.040678576 0.082201645 0.09791806
000090 13 2a 03 3e f5 29 1b be 71 72 9f bd 42 3d 36 be
       0.12809019 -0.15152724 -0.077855 -0.17796806
0000a0 21 a8 09 bd 6f c9 a5 3d 86 f0 69 bd e1 ef 9c bd
       -0.033607606 0.08095061 -0.057114147 -0.07662941
0000b0 43 e8 8a bd 1d 9b fd ba 88 45 d9 bc fd c6 08 3d
       -0.06782582 -0.0019348596 -0.026522413 0.033392895
0000c0 b6 18 dc 3d c1 8f ea bd 0d 77 a9 bd ce 5e 57 bd
       0.10746901 -0.114532 -0.0827466 -0.052580647
0000d0 6b 38 9c bd aa 1b a2 3d 16 ef a1 bd d1 ec 98 bd
       -0.076279484 0.07915433 -0.0790693 -0.07467044
0000e0 0e 1d be 3d 6b bf bc 3d 05 e2 7b bd 39 e8 bc bc
       0.092828855 0.092161976 -0.061494846 -0.023059951
0000f0 60 30 2b 3a 7a 54 42 3c fb db c4 bd b4 02 b7 bd
       0.0006530341 0.011860961 -0.096122704 -0.089360625
000100 92 c8 0c 3e b0 04 0d be 34 94 f1 bd d7 e3 c8 bc
       0.13748387 -0.1377132 -0.11795846 -0.024522705
000110 88 2a 00 3e 0c 96 fc bd 48 f0 43 bd 30 01 8b 3d
       0.12516224 -0.12333307 -0.047836572 0.06787336
000120 5c 51 96 3d cc ba 20 3d dc 59 51 bd 4b 25 63 bd
       0.07339737 0.039240643 -0.051111087 -0.055455487
000130 f6 c5 16 bd 39 35 41 bd f2 0c d5 bc ce ba 51 bd
       -0.036809884 -0.047169898 -0.02600715 -0.05120354
000140 2b 6d f0 bb 74 e8 0d be 1a b2 c0 bd b6 07 2b 3d
       -0.0073372326 -0.13858205 -0.0940897 0.0417554
000150 02 25 96 bd f1 91 c0 3c 33 57 26 3e 64 19 15 3e
       -0.073312774 0.02350709 0.16244201 0.14560467
000160 6b f8 07 be ab 88 24 3d fe 6c 97 3c 83 66 78 bd
       -0.13278358 0.0401694 0.018484589 -0.060644638
000170 af 61 85 bd a3 1d bd bc d7 87 e7 3d da 52 15 3d
       -0.06512772 -0.023085421 0.11305206 0.036455967
000180 29 e1 31 3e 2f 1e ac 3d e4 c2 2e 3e 0e 17 e8 3d
       0.17371048 0.084041946 0.17066532 0.11332522

layers.2.weight f4 [100]
000000 dc 21 82 3f 65 08 80 3f 86 cf 7e 3f b2 83 7c 3f
       1.0166583 1.0002562 0.99535406 0.9863845
000010 b2 4e 84 3f 6f 1c 7d 3f ec 00 83 3f cd 4c 81 3f
       1.0336516 0.9887151 1.0234656 1.0101563
000020 69 74 7f 3f 32 86 81 3f 25 d0 7a 3f 05 09 7b 3f
       0.99787 1.0119078 0.97973853 0.9806064
000030 cc 24 85 3f be 32 7e 3f f5 fe 7e 3f b6 97 77 3f
       1.0401855 0.99296176 0.99607784 0.9671587
000040 f3 a8 7b 3f 4d 53 81 3f 2b 69 7d 3f ec b9 83 3f
       0.9830467 1.0103546 0.989886 1.0291114
000050 d6 2a 84 3f f0 bb 79 3f 8a b0 82 3f 5a 7b 84 3f
       1.0325572 0.97552395 1.0210125 1.0350144
000060 7d b7 81 3f 9b 3f 82 3f f4 a1 7c 3f db f8 80 3f
       1.0134121 1.0175661 0.9868462 1.0075945
000070 35 5b 81 3f ba 74 7c 3f 15 42 7a 3f 61 a7 80 3f
       1.0105959 0.9861561 0.97757083 1.005108
000080 36 6a 84 3f d6 0a 7b 3f c6 30 7a 3f 98 33 7e 3f
       1.0344913 0.9806341 0.9773067 0.99297476
000090 6d a0 80 3f af 13 80 3f 5e 52 82 3f 37 2e 7c 3f
       1.0048958 1.0006007 1.0181386 0.9850802
0000a0 57 33 82 3f 00 4e 84 3f 35 e0 7d 3f 38 c2 81 3f
       1.0171918 1.0336304 0.9917024 1.0137396
0000b0 78 cf 80 3f d4 c0 80 3f b7 07 81 3f e1 c1 76 3f
       1.0063314 1.0058846 1.0080479 0.96389586
0000c0 07 f6 7d 3f 6d 65 80 3f 37 94 81 3f c0 90 7c 3f
       0.9920353 1.0030953 1.0123357 0.9865837
0000d0 a5 98 82 3f ea 0d 80 3f c9 97 80 3f e4 60 81 3f
       1.0202833 1.0004246 1.0046321 1.0107694
0000e0 c0 12 81 3f ab 00 7a 3f aa 35 81 3f e4 fc 80 3f
       1.0083847 0.9765727 1.0094502 1.0077176
0000f0 31 47 7b 3f de 2f 83 3f d5 44 81 3f 88 4c 7b 3f
       0.98155504 1.0248983 1.0099131 0.9816365
000100 fc 7c 7e 3f 33 f4 81 3f 52 00 83 3f d5 04 81 3f
       0.9940946 1.0152649 1.0234473 1.00796
000110 3b 4a 7b 3f 99 91 82 3f f1 c8 79 3f 56 1b 84 3f
       0.9816014 1.0200683 0.9757224 1.0320842
000120 b0 02 80 3f a1 16 80 3f 31 2e 82 3f 13 a4 7a 3f
       1.000082 1.0006906 1.0170346 0.9790661
000130 6b f0 7e 3f 0d ce 80 3f 8d cb 81 3f 71 ea 81 3f
       0.995856 1.0062882 1.0140244 1.0149671
000140 8e f4 80 3f 3a 69 80 3f 01 6e 7c 3f dd de 7a 3f
       1.0074632 1.0032113 0.9860535 0.9799631
000150 11 06 7c 3f 88 6b 80 3f d6 a6 80 3f 6a c9 80 3f
       0.98446757 1.0032816 1.0050914 1.0061467
000160 9e 99 7f 3f f7 13 79 3f 8c da 84 3f d0 d2 81 3f
       0.99843776 0.9729609 1.0379195 1.014246
000170 b0 8a 82 3f 32 d2 81 3f f3 4b 82 3f fb 08 81 3f
       1.0198574 1.0142272 1.0179428 1.0080866
000180 19 44 83 3f 29 25 85 3f d4 95 80 3f 21 c9 81 3f
       1.0255157 1.0401965 1.0045724 1.0139505

layers.2.bias f4 [100]
000000 cb a0 08 3d 62 58 78 3d 43 73 8c 3c 35 4f 0d bd
       0.03335647 0.060631163 0.017144805 -0.034499366
000010 7b fc 94 bc 33 73 a4 bc 20 38 8b bd 9b 19 03 3d
       -0.018186798 -0.020074463 -0.06797814 0.03200684
000020 bf 75 a5 3d e5 8d 13 3d d0 62 fe 3c a8 59 86 3c
       0.08079099 0.036023993 0.031052977 0.016400173
000030 49 cf 18 3d 5b ab 87 bd ee d5 e4 bc 45 8f 66 bc
       0.037307058 -0.0662448 -0.02793404 -0.014072244
000040 41 eb 83 bc 37 43 29 bd 63 9e d8 3c 48 d4 a3 bd
       -0.016103389 -0.041323867 0.026442712 -0.07999474
000050 c2 a1 0c 3d 76 c5 2f bd 53 e0 74 3d af ae be 3c
       0.03433395 -0.042912923 0.059784245 0.023276655
000060 19 05 2b bc 6c 01 96 bd ce 41 8f 3d 50 75 e6 bc
       -0.010438227 -0.0732449 0.06994973 -0.02813211
000070 2d d6 4c 3d c9 2c 70 3c ef 95 33 3d 40 4b 62 3d
       0.05000894 0.014659115 0.04384416 0.055247545
000080 46 54 10 3c b7 85 83 bd 4d c2 be 3c ab 9e 54 bd
       0.008809155 -0.064219885 0.02328601 -0.05190913
000090 98 71 b4 3c 69 48 62 3d 95 09 83 3d 87 47 56 3a
       0.022026822 0.055244837 0.06398312 0.00081741106
0000a0 20 2c 61 bd dc fc a9 3c 8c 28 07 bb c0 42 06 bc
       -0.05497372 0.020750456 -0.0020623533 -0.008194625
0000b0 56 e1 9f 3c b2 2f a8 3c 12 e0 2a 3d 79 f5 23 bc
       0.019516628 0.020530555 0.041717596 -0.010007256
0000c0 e1 48 91 3c 12 aa ec bc e9 5d 8d bc 41 88 3a bd
       0.017734947 -0.02888969 -0.017256694 -0.045540098
0000d0 3e d0 90 bd c5 33 ab bb 7c fe 87 bc c7 ea 95 3b
       -0.07070969 -0.0052246773 -0.01660084 0.004575107
0000e0 94 b2 d4 bc 66 65 f0 3c 42 b3 6e bd 98 e5 00 3d
       -0.025964059 0.029345226 -0.058276422 0.031468958
0000f0 05 d9 ac bc f0 8c 93 bd cf f3 88 3d 78 90 07 bd
       -0.021099577 -0.07204616 0.06687128 -0.03309676
000100 b8 6f 3c bd b3 0f f3 bc e2 60 b3 3c b7 81 aa 3a
       -0.04600498 -0.029670572 0.021896783 0.0013008629
000110 d4 92 e5 3c 0b fd d8 bc 10 75 1c 3c 28 b8 24 3d
       0.028024115 -0.026487848 0.009549394 0.040214688
000120 36 97 e2 bb 30 75 3a 3b fa 66 18 bd 2d 3d 89 3c
       -0.0069149984 0.0028451197 -0.03720758 0.016752804
000130 51 6f 64 bd ab 73 da bc 48 2b 66 3d 24 25 4d bd
       -0.055770222 -0.026666483 0.05619362 -0.05008425
000140 41 e9 66 3d 44 5a 89 bd 98 d4 12 bd 01 fd 6f 3d
       0.056374792 -0.0670667 -0.035847276 0.058590893
000150 ef f6 cf bc 01 88 13 3c 00 f3 ef 3c d1 0f 62 bd
       -0.025386302 0.009004594 0.029290676 -0.055190865
000160 a4 77 0e bd 49 c9 5d bd 2f a4 89 3d de 4c 4c bd
       -0.034782067 -0.05414704 0.06720769 -0.049877994
000170 ab af 7b bc 9c c5 66 bd ab c1 ae bd e7 aa db bc
       -0.015361707 -0.0563408 -0.08533033 -0.026814891
000180 24 7d 5a 3c 85 85 a8 bc c8 ad cd 3c f5 e0 6d bd
       0.0133355 -0.02057148 0.02510728 -0.058075864

layers.2.running_mean f4 [100]
000000 a8 54 76 3e fb 4f c1 3e 5b 2d 88 3e d8 a1 22 3e
       0.24055731 0.37756333 0.26597103 0.15882051
000010 f5 a4 2b 3f 00 f7 a7 3e 70 46 03 3e 9c 90 23 3d
       0.6704858 0.32805634 0.12819839 0.039932832
000020 4e ff 33 3e be 04 d5 3d 4c 78 dc 3d 0e a3 b5 3d
       0.1757786 0.10401295 0.10765132 0.08868991
000030 20 79 ce 3e 96 14 ed 3d 9d 19 f3 3d 05 e9 8d 3e
       0.40326786 0.11576192 0.1187012 0.27716842
000040 15 de 21 3f a1 61 47 3e c2 a4 b0 3e eb 42 28 3e
       0.63229495 0.19470836 0.345007 0.16431777
000050 1e 13 bc 3e 2f 4f 4a 3e 75 02 b0 3d ce 5f e4 3d
       0.36733335 0.19756769 0.08594219 0.11151086
000060 b5 d8 11 3f 4e 81 0f 3f 32 24 ab 3e 1d 5a bd 3e
       0.56971294 0.5605668 0.33426052 0.36982813
000070 ce 0a 31 3f e0 a2 e5 3e 11 b2 b2 3e 24 96 d6 3e
       0.6915711 0.44850826 0.3490148 0.41911423
000080 f8 08 75 3e 69 f7 ae 3e df 1a 00 3f f7 e4 02 3e
       0.23929203 0.34173134 0.50041 0.12782656
000090 0c 2d d8 3e c8 a1 26 3e c8 d6 8f 3e db b0 05 3f
       0.42221868 0.16272652 0.28093553 0.52222985
0000a0 27 63 a8 3e 62 65 2f 3e 94 58 f5 3e 6c 45 12 3e
       0.32888147 0.17128518 0.47919142 0.14284295
0000b0 42 bc 9f 3c 5e af 93 3e 7f 5d 20 3e 85 02 18 3f
       0.019498948 0.28844732 0.15660666 0.59378844
0000c0 4f 5e 99 3e 5b e6 79 3e 7a 6b 9e 3d 11 87 bb 3e
       0.29954764 0.2440428 0.07735343 0.36626485
0000d0 a8 b7 06 3e 2a f4 ab 3e 4c f8 1e 3e 64 8e 86 3e
       0.13155997 0.3358472 0.15524405 0.2628051
0000e0 7d c0 3a 3e 0a c7 81 3e 53 17 c2 3d dc 35 04 3f
       0.18237491 0.25347167 0.09477105 0.5164468
0000f0 09 17 c1 3e 5b 5a dd 3e d2 02 02 3e d7 5a 43 3e
       0.37712887 0.43232998 0.12696388 0.19077621
000100 d5 75 82 3e 98 c8 2f 3e 9b f6 7d 3d 01 33 b2 3e
       0.25480524 0.17166364 0.06200276 0.34804538
000110 4f ae da 3e 26 96 3c 3e 1a ad f8 3e 4a 84 de 3e
       0.42711112 0.18416652 0.48569566 0.43460304
000120 17 10 fa 3d a9 0a 35 3e f4 ed b1 3e 85 80 ea 3d
       0.122101 0.17679848 0.34751856 0.114502944
000130 6b 72 b2 3e d2 5c 6b 3d 2e 11 b9 3d 74 2c 6d 3e
       0.3485292 0.057461567 0.0903648 0.23161489
000140 2c 73 de 3e 38 fb d4 3d cd d1 47 3f a9 07 20 3f
       0.43447244 0.10399479 0.78054506 0.6251169
000150 c1 76 ec 3d be f7 28 3e a3 d3 7a 3e 06 59 24 3f
       0.11546088 0.16500756 0.24494796 0.6419834
000160 cc cf c7 3e 5a 43 0b 3f c2 8a 38 3e 80 b7 a4 3e
       0.39025724 0.54399645 0.18021682 0.3217125
000170 64 2c 08 3f 3c cb 10 3f 0c ed 17 3f 48 b7 32 3e
       0.53192735 0.5656011 0.5934608 0.17452729
000180 79 2b 0f 3f 9e 24 b3 3e 7f bc 9e 3e f1 33 13 3f
       0.5592571 0.34988874 0.31003186 0.5750113

layers.2.running_var f4 [100]
000000 1c e9 33 3e 29 48 5a 3e 84 19 15 3e 0d cf c4 3d
       0.17569393 0.2131659 0.14560515 0.09609804
000010 da 9c 90 3e a2 71 37 3e a0 77 89 3d ac f9 a0 3c
       0.28244668 0.17914441 0.0671227 0.019650303
000020 c4 29 dc 3d b7 85 7a 3d 31 02 90 3d 51 be 3a 3d
       0.10750154 0.061162677 0.07031668 0.045591656
000030 f7 3c 62 3e fc f6 88 3d b5 f4 9f 3d 1f 63 08 3e
       0.22093569 0.066877335 0.07810346 0.13319062
000040 e4 e9 9f 3e a1 4e f7 3d 43 c2 52 3e 95 f7 ba 3d
       0.31233132 0.12075544 0.20581917 0.09129254
000050 e4 0f 58 3e 9f d4 fe 3d 65 5a 67 3d 02 29 87 3d
       0.21099812 0.12442898 0.05648269 0.065996185
000060 ec 50 8e 3e a4 93 bc 3e b0 46 2c 3e 3a 6e 46 3e
       0.27796113 0.3683139 0.1682384 0.19377986
000070 4c 42 bb 3e cc aa 78 3e 30 b7 4f 3e db cd 6d 3e
       0.36574018 0.24283904 0.20284724 0.23223059
000080 88 6e 15 3e b2 37 40 3e 10 fd 97 3e 0b b4 89 3d
       0.14592946 0.18771246 0.2968526 0.067237936
000090 8b e2 89 3e d2 79 a2 3d bb 46 3f 3e f8 ef 89 3e
       0.2693065 0.07933392 0.18679325 0.26940894
0000a0 1d ff 4e 3e ae 31 ee 3d c9 f3 85 3e 2a b5 b1 3d
       0.20214505 0.116305694 0.26162556 0.086771324
0000b0 4a 52 0c 3c 32 3b 54 3e e4 4e d4 3d 91 52 88 3e
       0.008564541 0.20725706 0.1036661 0.26625493
0000c0 6a c0 13 3e 24 5f d2 3d f7 96 43 3d 2d 5a 59 3e
       0.14428869 0.10272053 0.047751393 0.21225806
0000d0 c9 b5 9b 3d 0f f9 59 3e 8a 4b b0 3d e6 46 1c 3e
       0.07603032 0.21286415 0.08608158 0.1526142
0000e0 71 c4 cd 3d ab a1 18 3e bc 2b 70 3d d4 08 99 3e
       0.10047234 0.14905421 0.05863546 0.29889548
0000f0 f7 2b 2c 3e be de 85 3e 5a 06 9e 3d 92 76 d7 3d
       0.16813646 0.261465 0.07716055 0.10520662
000100 db 33 25 3e ff 02 c9 3d 07 ed 05 3d d4 f8 53 3e
       0.16133063 0.098150246 0.03269675 0.20700389
000110 1d 3a 68 3e c3 cd de 3d 53 dc 7f 3e ea ca 3e 3e
       0.22678418 0.1087909 0.24986391 0.18632093
000120 0c f8 84 3d 1f 1e c9 3d 0a fe 51 3e 0d 52 9d 3d
       0.06492624 0.09820198 0.20507064 0.076816656
000130 ca b9 4c 3e d4 2e d3 3c f3 da 75 3d 8d 56 01 3e
       0.19992748 0.025779165 0.06002326 0.12630673
000140 53 78 5c 3e 42 85 84 3d 2c 86 bf 3e 90 6c bb 3e
       0.21530275 0.064707294 0.37407053 0.36606264
000150 df 41 54 3d 5f d7 c8 3d 28 10 1a 3e 3f 6c 84 3e
       0.051820632 0.09806704 0.15045226 0.25863835
000160 a8 b5 6a 3e 09 04 65 3e 1b 8b dc 3d 5c d3 69 3e
       0.22920859 0.2236482 0.1076872 0.22834533
000170 d1 d2 8b 3e 00 5f 92 3e 5c 40 94 3e 07 c3 02 3e
       0.27309278 0.28588104 0.28955352 0.1276971
000180 29 76 92 3e 60 ae 5e 3e a6 a9 30 3e f1 ac 9e 3e
       0.28605774 0.21746206 0.17252216 0.3099132

layers.4.weight f4 [50, 100]
000000 82 f2 19 3d 71 ce 40 3a 81 a6 68 bd c8 fe 53 bd
       0.03758479 0.0007354981 -0.056799415 -0.05175665
000010 8b 0a 9d 3d 83 20 4f 3d a1 8b ce bd a8 0c eb bc
       0.076680265 0.050568115 -0.10085226 -0.028692558
000020 17 e2 53 bd 08 2c e0 bd 51 d2 66 3d 15 ea 75 3c
       -0.051729288 -0.10945898 0.056352917 0.015009423
000030 cc 87 82 3d 79 41 21 bc d6 7f 1a 3d 03 85 c4 3b
       0.063735574 -0.00984227 0.03771957 0.0059973015
000040 21 46 64 3d 87 a3 87 bd a1 76 0e bd be 48 14 bd
       0.055730943 -0.06622987 -0.034781102 -0.036202185
000050 47 8c de bb ba 03 85 3d 57 1c b1 3d f5 e4 f9 bc
       -0.0067916247 0.064948514 0.086479835 -0.030504683
000060 ac d2 06 3c 38 20 a5 bd e1 89 88 3d 32 f7 3e bd
       0.008228939 -0.08062786 0.06666923 -0.046622463
000070 61 2c 78 3b 85 1b d3 3c eb 9e 9c bd 52 67 1a 3d
       0.0037868249 0.025769958 -0.07647499 0.03769619
000080 5a 75 f8 bc 44 44 e8 bc 61 4a 46 3d 7d 98 9e 3d
       -0.030329395 -0.028352864 0.048410777 0.077439286
000090 72 d6 c1 bc 5f 59 e9 3d 17 a7 70 3c f3 8f 81 3d
       -0.023661826 0.11393999 0.014688275 0.06326284
0000a0 e9 a2 1c bd 0d 5d 01 bb 00 02 41 3d d1 76 97 3d
       -0.0382413 -0.00197393 0.047121048 0.07395709
0000b0 70 29 8e bd 28 51 27 bc 66 18 1a 3a d0 77 92 bd
       -0.06941497 -0.01021222 0.00058782694 -0.07151759
0000c0 49 1a c9 3d 76 1a 9c 3d 43 98 55 3d 79 5e 9a 3d
       0.098194666 0.076222345 0.05214716 0.075375505
0000d0 4a 52 83 bc 7f 3e 8a ba 0d dd 8a 3d 14 ce 53 bd
       -0.01603045 -0.001054719 0.06780443 -0.051710203
0000e0 53 e1 c4 bd 07 21 ac bd c7 54 8e 3d ab 93 10 bd
       -0.0961329 -0.08404737 0.06949764 -0.035297077
0000f0 ed 17 84 3d 34 77 be 3d 2c c0 f8 3c 66 82 b4 bc
       0.06449876 0.0930008 0.030365072 -0.022034835
000100 c0 00 f6 3d 00 54 d4 bc 1c 77 85 bd 82 82 09 3d
       0.12011862 -0.02591896 -0.06516859 0.033571728
000110 7c b3 95 3d 16 56 5b 3b 84 82 03 3c 3c cb a8 3d
       0.073096246 0.003346806 0.008026723 0.08241889
000120 36 1a c4 bd 70 a7 fd 3c 59 0c 95 bd 05 f8 57 bd
       -0.09575312 0.03096363 -0.07277746 -0.052726764
000130 e1 14 11 bd d0 6e 8b bd d3 44 1f bd 33 04 b9 3c
       -0.035420302 -0.06808245 -0.038883995 0.02258501
000140 bb f7 e1 bc fa 26 3f bd d9 27 9f 3d 34 c3 69 3d
       -0.027583947 -0.04666803 0.07771272 0.057070926
000150 b4 62 8e bd 45 ca 9a 3d da 76 78 bd ba b0 49 bd
       -0.0695242 0.07558111 -0.06066022 -0.049240805
000160 0a 83 f0 3d f5 56 8e 3c 4b 98 7c bd 3f 53 56 3a
       0.11743744 0.017375449 -0.061668675 0.0008175857
000170 86 d9 ce bc 8f 69 1b bd 3a fd 9b 3d 44 ec ae bc
       -0.025250208 -0.037942465 0.076166585 -0.021352895
000180 80 5b b1 bd 1c e1 77 bd 03 dc 21 bc d6 1c 1e 3e
       -0.0866003 -0.060517415 -0.009879115 0.15440688
000190 4a f9 00 bc 35 27 7b bb 6c 6b 02 3d bf 86 b6 3d
       -0.007871935 -0.003832293 0.031840727 0.089124195
0001a0 44 cd 92 bd 12 93 cd bd 1f a0 78 3d 57 39 d8 3d
       -0.071680576 -0.10037817 0.06069958 0.10557812
0001b0 62 32 11 bd 42 a8 91 bc 78 2d f8 3c 98 d0 a1 bd
       -0.03544844 -0.017780427 0.030295119 -0.07901114
0001c0 63 f0 08 bc 2b a1 c7 bd 7e 13 d4 3b fe d1 6d bd
       -0.008358094 -0.09747537 0.00647205 -0.058061592
0001d0 91 0a 99 3c dd 04 b1 3d df a4 85 3c 4a 05 2c bd
       0.018681796 0.08643506 0.016313968 -0.04199723
0001e0 c5 5c 5f 3c e9 c9 24 3d 80 08 b3 3d 3f eb 5c bd
       0.013632958 0.04023162 0.087418556 -0.053935286
0001f0 f1 00 4b 3d 05 7c c9 bd ac 87 af 3d 63 3c 7d bd
       0.049561445 -0.09838108 0.08570799 -0.061825167
000200 cd a5 e3 bc 6a 75 2e 3d ad 69 25 3d 52 59 5f bd
       -0.02778902 0.042592444 0.040383983 -0.054528542
000210 94 90 1d bd a2 8b b9 bd c7 5c cc bc df a1 9d bd
       -0.03846796 -0.09059836 -0.024946583 -0.0769689
000220 02 cb bc bd 7a 60 e1 3c 72 26 2b bd 7a 62 e4 bc
       -0.09218408 0.027511824 -0.04178471 -0.027878989
000230 f0 8e d7 bc 42 70 eb bd d8 4d b3 3d 3f ca e3 ba
       -0.026313275 -0.11496021 0.08755082 -0.0017379
000240 3b 60 d1 bc 00 91 24 bd ea 47 19 3d 17 5a ad bd
       -0.025558582 -0.040177345 0.0374221 -0.08464449
000250 51 24 72 3d 2a 53 a9 bd 51 cc 35 bd 7f ac 83 bd
       0.059116665 -0.082678154 -0.044384304 -0.064293854
000260 23 8b 94 bd 90 63 98 bc ea 6a 6c bd e0 78 8c bd
       -0.07253101 -0.018602163 -0.05771915 -0.068589926
000270 0d 6d ad bd 2e 7c ed 3c e4 b0 bc bd fc 73 9b bb
       -0.084680654 0.028989878 -0.09213427 -0.004744051
000280 10 2a 12 bd 12 cd f8 bd e5 98 45 bd d6 d2 24 bc
       -0.035684645 -0.12148489 -0.048241515 -0.010060033
000290 3f b6 68 3d 65 a1 c4 bc d3 0e 88 3d 72 59 32 3d
       0.05681443 -0.02400274 0.066434525 0.043542333
0002a0 5b 95 b0 bd 13 89 7d 3c 23 2f c1 bd 5f b8 ab bd
       -0.08622237 0.015474576 -0.09432819 -0.08384775
0002b0 f1 80 e9 3d ed 73 d4 3d 9f c6 9d bd b0 9b a8 3b
       0.11401547 0.103736736 -0.077038996 0.0051455125
0002c0 0a cb 07 be 58 e9 56 bd 16 45 9b 3c 53 46 f2 bd
       -0.13261047 -0.052468628 0.018953841 -0.118298195
0002d0 7c ed e3 bc eb ce 7a bd d5 5d 5a bd 8f 9d 8c 3d
       -0.027823202 -0.06123249 -0.05331214 0.068659894
0002e0 94 d4 5f bd 5d a0 c3 3d 56 f0 c4 3c 7e ed cb 3c
       -0.05464609 0.09552071 0.024040382 0.024893519
0002f0 f2 6c 8b bd 2a 25 a9 bc a9 b6 d4 3d 62 53 44 bd
       -0.06807889 -0.020647604 0.10386402 -0.047931083
000300 b7 5f fd bc 42 7e 70 bd aa d9 08 bd 98 f1 59 3d
       -0.03092943 -0.05871416 -0.033410706 0.053208917
000310 d8 44 44 3d cc 72 70 bd 7f 1d 88 3d 74 88 b6 bd
       0.047917217 -0.05870323 0.06646251 -0.08912745
000320 71 95 17 bd 33 89 63 bc ed 58 6b bc a5 50 ac bb
       -0.037007753 -0.013887691 -0.014364463 -0.005258637
000330 26 1f df 3c 50 a8 82 3c f6 5d e5 bd e0 63 d9 3c
       0.027236532 0.015949398 -0.11199562 0.026536882
000340 25 dc 91 3c 91 70 7e 3d 8f ff 01 bd 28 18 85 bd
       0.017805168 0.06211907 -0.03173786 -0.06498748
000350 18 6d c4 3c 40 f8 69 bd b4 ed 8b bd f1 b6 4a 3c
       0.023977801 -0.057121515 -0.06832448 0.012372718
000360 e1 b9 8e 3d 0f 49 c3 bd 6e 50 92 bc 9a d5 d6 bd
       0.06969047 -0.09535419 -0.017860617 -0.1048996
000370 f8 3c f2 bc 63 82 ba 3c 88 e4 23 3d e4 30 2e bd
       -0.029570088 0.022767251 0.040012866 -0.042527094
000380 31 97 b6 3d 5b 10 3b 3d 5d 2b 6a 3d 5d f1 4f bd
       0.08915556 0.045669895 0.05717026 -0.05076729
000390 38 70 59 3d 5f 10 be bc a5 a6 57 3d 39 3a c4 3d
       0.053085536 -0.023201166 0.05264916 0.095814176
0003a0 91 6d c9 bd a3 cf bf ba 9c 37 d8 3c 85 77 ac bc
       -0.09835351 -0.0014634024 0.026393704 -0.021053085
0003b0 d7 3a 41 3d f4 56 0c 3d b5 6c ad bd 6c 6c a6 3d
       0.047175255 0.034262612 -0.08468 0.081261486
0003c0 b8 9f 23 bc 57 1b c0 3c 11 da 98 3c 80 45 54 39
       -0.00998681 0.023450537 0.01865867 0.00020243786
0003d0 56 74 0e bd 67 84 2c 3d 69 2c 8f ba 5f cc 0e 3d
       -0.034778915 0.042118456 -0.001092327 0.034862872
0003e0 4a 2d 5b bc b1 42 8e 3d ca 3c c1 bc 3f 40 0d bd
       -0.013377497 0.06946314 -0.023588557 -0.034485098
0003f0 15 90 53 bd 66 42 a9 3d 24 37 7a bc 14 f7 fd bc
       -0.05165108 0.082646176 -0.015271936 -0.031001605

layers.4.bias f4 [50]
000000 17 1a 45 3d 10 ae ba 3d 13 cf 9f 3d b0 1f 24 bd
       0.048120584 0.09115231 0.07803168 -0.040069282
000010 97 1f 19 3d f3 46 89 3d a7 88 7d 3c cd 3a df bc
       0.037383642 0.067029856 0.015474475 -0.027249718
000020 eb 20 b0 bc 80 e2 96 3d f4 fc 89 3c 72 19 31 3d
       -0.021500072 0.0736742 0.01684425 0.043237157
000030 71 fe 51 3d 5c bd e2 3d 1a 3e 0b bd 75 fb d2 bc
       0.051268045 0.11071274 -0.03399477 -0.02575467
000040 2c 16 d7 3d 0e 04 cd 3c bf 11 ca 3d 59 fc 62 3d
       0.10502276 0.025026347 0.09866666 0.05541644
000050 5d 86 54 3d f8 fe 28 3c 1c 7b 01 3e b4 5a 9b 3c
       0.05188595 0.010314696 0.12644619 0.018964149
000060 85 f7 91 3d f8 f0 fc 3c f5 32 61 bd c9 eb e1 3d
       0.07127289 0.030876622 -0.054980237 0.110313006
000070 ab dc 96 bd 06 74 96 3c e0 84 b5 3d c5 38 29 3e
       -0.07366308 0.018365871 0.088632345 0.16525562
000080 06 de 24 3e 81 77 80 3d f5 0b 03 3e 9b 7b e5 3d
       0.1610032 0.062727936 0.1279753 0.112052165
000090 68 9c 06 3e cb a4 45 bd 0c 94 29 3e 5f 7c dc 3d
       0.13145602 -0.048252862 0.16560382 0.107659094
0000a0 86 c9 13 3e 28 e7 12 3e 09 6a 88 3d 18 71 a3 3d
       0.14432344 0.14345992 0.066608496 0.07980555
0000b0 1b 1f a8 3d 3f fe 20 3c 4d c9 f9 3c d5 60 a0 3d
       0.08209058 0.009826242 0.030491496 0.07830969
0000c0 cb e3 09 bd 2e 60 7a bc
       -0.033664506 -0.01528172

layers.6.weight f4 [50]
000000 5c 8d 3d 3f 06 0a 66 3f 1b 74 68 3f 7b eb 6a 3f
       0.7404382 0.89859045 0.9080216 0.91765565
000010 c7 e5 62 3f 49 06 66 3f 97 fd 68 3f 5e d5 6c 3f
       0.8863186 0.8985334 0.9101195 0.9251307
000020 8f c8 68 3f 1d 85 69 3f ec 16 67 3f a2 87 25 3f
       0.9093103 0.9121874 0.9026935 0.64660084
000030 5e f7 66 3f 57 c4 28 3f db 0d 2b 3f b2 f9 27 3f
       0.902212 0.6592459 0.66818017 0.6561538
000040 91 95 67 3f fc 8c 65 3f b3 02 69 3f 5c 56 68 3f
       0.90462595 0.8966825 0.91019744 0.90756774
000050 db 4f 4a 3f df 44 37 3f 7b 20 5c 3f cb 7a 68 3f
       0.790281 0.71589464 0.8598706 0.9081237
000060 ab 3b 6a 3f 11 af 19 3f 9e 27 69 3f 7a 7d 3d 3f
       0.91497296 0.60032755 0.91076076 0.7401959
000070 e6 ba 37 3f 4a df 2e 3f e1 95 66 3f 98 5d 69 3f
       0.7176956 0.6830946 0.9007245 0.9115844
000080 f2 41 6c 3f c8 14 69 3f 44 b1 57 3f 50 5c 66 3f
       0.92288125 0.91047335 0.8425486 0.8998461
000090 cd 08 69 3f 25 38 36 3f 2b 77 51 3f ca ad 3b 3f
       0.91029054 0.7117942 0.8182246 0.73312056
0000a0 61 61 6d 3f 60 5c 6b 3f 69 bd 67 3f ca c2 69 3f
       0.92726713 0.9193783 0.9052339 0.9131285
0000b0 17 a2 2b 3f b4 c7 6a 3f e2 fe 68 3f f9 e3 5a 3f
       0.67044204 0.9171097 0.9101392 0.8550411
0000c0 96 ec 69 3f 7d 5b 64 3f
       0.91376626 0.892021

layers.6.bias f4 [50]
000000 7a 12 5e 3e 7c 35 f8 bd 81 50 00 be 76 53 09 be
       0.21686736 -0.12119576 -0.1253071 -0.13410744
000010 8c 83 07 3e d5 f8 01 be a4 5d ef 3d ff 0d e6 bd
       0.13233775 -0.12692578 0.116877824 -0.11233138
000020 c2 36 14 be 57 e0 03 be 9a 9e f8 3d 58 e8 91 be
       -0.14474013 -0.12878548 0.12139626 -0.28497577
000030 e9 de 02 be bf a3 89 3e 04 7d 70 be 2b 9c 70 3e
       -0.12780346 0.2688274 -0.2348519 0.23497073
000040 f8 08 01 be a2 cb f8 bd 6a c7 f5 bd 84 c0 ec 3d
       -0.12601078 -0.12148215 -0.12000926 0.11560157
000050 f9 97 4b 3e 26 de 5d be 9e 66 0d be eb 82 00 3e
       0.19882192 -0.21666774 -0.13808677 0.12549941
000060 9c b9 fd 3d f4 ed a6 be 0c b2 04 3e 64 1a 57 be
       0.12388918 -0.3260342 0.12958544 -0.21006161
000070 d0 7e 49 3e a9 5e 84 3e 7d 66 fd 3d 56 27 fe bd
       0.19677281 0.2585347 0.12373064 -0.124098465
000080 03 db 00 be ea c4 f2 bd ea 12 3a be 6b 68 03 3e
       -0.12583546 -0.118539646 -0.18171278 0.12832801
000090 c6 63 de bd fc 5b 5a 3e 84 13 49 be 52 4e 5b 3e
       -0.10858874 0.21324152 -0.19636351 0.21416596
0000a0 0b c0 fa bd b7 4a fa bd 49 92 01 be 57 08 f3 bd
       -0.122436605 -0.12221282 -0.1265346 -0.11866825
0000b0 f2 b9 85 be 57 62 e6 bd b4 65 00 3e 56 8b 0c 3e
       -0.26118428 -0.112492256 0.12538797 0.13725027
0000c0 c9 46 fd 3d f8 1b 01 3e
       0.12367017 0.12608325

layers.6.running_mean f4 [50]
000000 ec 5f cf 3e 75 96 fe 3e ae 27 cd 3e 50 48 96 3e
       0.4050287 0.49724165 0.40069336 0.29352045
000010 fa 48 c4 3e 11 8a da 3e 7b bb a5 3e 0e 43 79 3e
       0.38336927 0.4268346 0.323696 0.24341986
000020 01 9f ad 3e 53 49 f1 3e ff 6f c0 3e 9a 4c dc 3e
       0.33910373 0.47126254 0.37585446 0.43027192
000030 2a 39 da 3e e7 94 dc 3e fb 7a a9 3e 41 71 c2 3e
       0.42621738 0.43082353 0.3310164 0.3797703
000040 30 8a d7 3e 38 e5 cd 3e d6 79 d4 3e 64 88 be 3e
       0.42097616 0.40213943 0.41499203 0.37213433
000050 52 31 cc 3e aa 4e b4 3e 86 9f cb 3e e5 96 a7 3e
       0.39881378 0.35216266 0.39770144 0.3273231
000060 67 cd c7 3e 56 0b e6 3e 88 ca a9 3e ca 9f dd 3e
       0.39023897 0.44930524 0.33162332 0.43285972
000070 9e 68 b4 3e 18 ca e0 3e f6 26 db 3e dc 8f dc 3e
       0.35236067 0.43904185 0.42803162 0.43078506
000080 ee f9 f7 3e 63 96 ad 3e 7f a7 cb 3e c0 43 09 3f
       0.4843287 0.33903798 0.39776227 0.53619003
000090 73 a5 af 3e 53 05 b9 3e f0 58 e9 3e 97 4d f6 3e
       0.34305915 0.36136875 0.45575666 0.4810607
0000a0 27 e1 bb 3e 5e cc d6 3e 9d 48 a5 3e fe 3d b3 3e
       0.36695215 0.41952795 0.32281962 0.35008234
0000b0 52 e3 cc 3e ce 57 ac 3e bd a0 d4 3e bb ed c7 3e
       0.40017182 0.3366074 0.41528884 0.3904856
0000c0 de 35 b2 3e 8a 06 a5 3e
       0.34806722 0.3223155

layers.6.running_var f4 [50]
000000 23 93 cb 3e 26 b0 cb 3e d4 5b 95 3e 7f d3 73 3e
       0.39760694 0.39782828 0.29171622 0.23811148
000010 15 6e 90 3e 6b 83 d8 3e 9d 6a 81 3e 29 fe 18 3e
       0.28208986 0.42287764 0.25276652 0.14940704
000020 75 db 89 3e 02 ec d6 3e 58 7f 9e 3e 43 65 dd 3e
       0.26925245 0.41976935 0.3095653 0.4324132
000030 58 b3 9d 3e 6e 37 d1 3e 06 a6 b6 3e b0 bf bc 3e
       0.3080089 0.40862602 0.3567354 0.36864996
000040 1e c7 9b 3e 3a 5e a9 3e ed 77 a0 3e a7 a8 77 3e
       0.30425352 0.33079702 0.31341496 0.2418543
000050 73 78 9f 3e 06 d1 79 3e cd bd 7a 3e c8 5f 8e 3e
       0.31146583 0.24396142 0.24486466 0.2780745
000060 59 0e a1 3e 75 1b f6 3e 05 4e 80 3e b5 59 bb 3e
       0.3145626 0.48067823 0.25059524 0.3659188
000070 42 bb 98 3e 4c a5 c2 3e b9 e1 b2 3e d1 81 a4 3e
       0.29830366 0.38016737 0.34937838 0.32130292
000080 71 df b8 3e 13 a9 64 3e eb e8 b1 3e 01 fc e1 3e
       0.36107972 0.22330122 0.34748015 0.44137576
000090 30 e1 42 3e f2 24 b2 3e e7 04 b8 3e 4a f7 e9 3e
       0.19031215 0.34793812 0.3594124 0.4569648
0000a0 ce 2f 70 3e 97 06 a2 3e 06 7f 5b 3e 31 75 87 3e
       0.23455736 0.31645653 0.21435174 0.26456597
0000b0 43 a2 b4 3e 73 30 80 3e ba 2e b8 3e 75 11 8e 3e
       0.35280046 0.25036964 0.3597315 0.27747694
0000c0 ee 36 8c 3e 50 91 85 3e
       0.27385658 0.26087427

layers.8.weight f4 [1, 50]
000000 72 40 0b 3d 73 9f a5 bc f9 ca ad bc c4 04 7c bc
       0.033997007 -0.020217633 -0.021214949 -0.015381996
000010 b0 16 6a 3c 30 c0 cc bc 4f 5f 72 3c 81 21 41 bc
       0.014287636 -0.024993986 0.014793231 -0.011787773
000020 dc 4b 81 bc fe 5e ad bc 34 bf 8a 3c 5c aa 49 bd
       -0.015783243 -0.02116346 0.016936876 -0.049234733
000030 23 62 cc bc 29 e8 3f 3d fe 09 27 bd bb 28 2c 3d
       -0.024949139 0.046852265 -0.040781014 0.04203103
000040 d3 bd aa bc 80 0a a7 bc 0a dd 89 bc dc 21 59 3c
       -0.020842468 -0.020390749 -0.016829032 0.013252702
000050 83 99 bc 3c 52 0b f0 bc 3b f5 7a bc da c2 8b 3c
       0.023022419 -0.029302273 -0.015317257 0.017060686
000060 1a f9 80 3c 49 10 80 bd 1e 47 8a 3c f8 af f6 bc
       0.01574378 -0.06253106 0.016879614 -0.030113205
000070 3d fb f9 3c 9a e5 2a 3d 85 92 85 3c 43 d2 97 bc
       0.030515308 0.04172287 0.016305218 -0.018532878
000080 62 04 7b bc 58 31 91 bc b7 4f 9a bc 6a 4b ce 3c
       -0.015320869 -0.017723724 -0.01883684 0.025182445
000090 7c 60 59 bc 7b 7b 13 3d 4d 47 c9 bc 82 fe 0b 3d
       -0.013267633 0.036006432 -0.024570132 0.034178264
0000a0 ff 50 5f bc 42 35 65 bc 79 33 6b bc ad bf 6a bc
       -0.013630151 -0.013989748 -0.014355534 -0.014327926
0000b0 f3 c7 2c bd 68 1e 5e bc 1c d2 9a 3c a4 55 90 3c
       -0.042182874 -0.013557054 0.018899016 0.017618962
0000c0 4f cf 8f 3c 81 1e 88 3c
       0.017554907 0.016616108
